==========================================================================================
Layer (type:depth-idx)                   Output Shape              Param #
==========================================================================================
Sequential                               [1, 436]                  --
├─CardEmbedding: 1-1                     [1, 63, 18]               --
├─PositionalEncoding: 1-2                [1, 63, 18]               --
├─TransformerEncoderLayer: 1-3           [1, 63, 18]               --
│    └─MultiheadAttention: 2-1           [1, 63, 18]               1,368
│    └─Dropout: 2-2                      [1, 63, 18]               --
│    └─LayerNorm: 2-3                    [1, 63, 18]               36
│    └─Linear: 2-4                       [1, 63, 2048]             38,912
│    └─Dropout: 2-5                      [1, 63, 2048]             --
│    └─Linear: 2-6                       [1, 63, 18]               36,882
│    └─Dropout: 2-7                      [1, 63, 18]               --
│    └─LayerNorm: 2-8                    [1, 63, 18]               36
├─Select: 1-4                            [1, 18]                   --
├─Linear: 1-5                            [1, 436]                  8,284
├─BatchNorm1d: 1-6                       [1, 436]                  872
├─Linear: 1-7                            [1, 436]                  190,532
├─BatchNorm1d: 1-8                       [1, 436]                  872
├─Linear: 1-9                            [1, 436]                  190,532
==========================================================================================
Total params: 468,326
Trainable params: 468,326
Non-trainable params: 0
Total mult-adds (M): 0.47
==========================================================================================
Input size (MB): 0.00
Forward/backward pass size (MB): 1.08
Params size (MB): 1.87
Estimated Total Size (MB): 2.95
==========================================================================================
…
