==========================================================================================
Layer (type:depth-idx)                   Output Shape              Param #
==========================================================================================
Sequential                               [1, 436]                  --
├─CardEmbedding: 1-1                     [1, 63, 26]               --
├─TransformerEncoderLayer: 1-2           [1, 63, 26]               --
│    └─MultiheadAttention: 2-1           [1, 63, 26]               2,808
│    └─Dropout: 2-2                      [1, 63, 26]               --
│    └─LayerNorm: 2-3                    [1, 63, 26]               52
│    └─Linear: 2-4                       [1, 63, 50]               1,350
│    └─Dropout: 2-5                      [1, 63, 50]               --
│    └─Linear: 2-6                       [1, 63, 26]               1,326
│    └─Dropout: 2-7                      [1, 63, 26]               --
│    └─LayerNorm: 2-8                    [1, 63, 26]               52
├─TransformerEncoderLayer: 1-3           [1, 63, 26]               --
│    └─MultiheadAttention: 2-9           [1, 63, 26]               2,808
│    └─Dropout: 2-10                     [1, 63, 26]               --
│    └─LayerNorm: 2-11                   [1, 63, 26]               52
│    └─Linear: 2-12                      [1, 63, 50]               1,350
│    └─Dropout: 2-13                     [1, 63, 50]               --
│    └─Linear: 2-14                      [1, 63, 26]               1,326
│    └─Dropout: 2-15                     [1, 63, 26]               --
│    └─LayerNorm: 2-16                   [1, 63, 26]               52
├─TransformerEncoderLayer: 1-4           [1, 63, 26]               --
│    └─MultiheadAttention: 2-17          [1, 63, 26]               2,808
│    └─Dropout: 2-18                     [1, 63, 26]               --
│    └─LayerNorm: 2-19                   [1, 63, 26]               52
│    └─Linear: 2-20                      [1, 63, 50]               1,350
│    └─Dropout: 2-21                     [1, 63, 50]               --
│    └─Linear: 2-22                      [1, 63, 26]               1,326
│    └─Dropout: 2-23                     [1, 63, 26]               --
│    └─LayerNorm: 2-24                   [1, 63, 26]               52
├─TransformerEncoderLayer: 1-5           [1, 63, 26]               --
│    └─MultiheadAttention: 2-25          [1, 63, 26]               2,808
│    └─Dropout: 2-26                     [1, 63, 26]               --
│    └─LayerNorm: 2-27                   [1, 63, 26]               52
│    └─Linear: 2-28                      [1, 63, 50]               1,350
│    └─Dropout: 2-29                     [1, 63, 50]               --
│    └─Linear: 2-30                      [1, 63, 26]               1,326
│    └─Dropout: 2-31                     [1, 63, 26]               --
│    └─LayerNorm: 2-32                   [1, 63, 26]               52
├─TransformerEncoderLayer: 1-6           [1, 63, 26]               --
│    └─MultiheadAttention: 2-33          [1, 63, 26]               2,808
│    └─Dropout: 2-34                     [1, 63, 26]               --
│    └─LayerNorm: 2-35                   [1, 63, 26]               52
│    └─Linear: 2-36                      [1, 63, 50]               1,350
│    └─Dropout: 2-37                     [1, 63, 50]               --
│    └─Linear: 2-38                      [1, 63, 26]               1,326
│    └─Dropout: 2-39                     [1, 63, 26]               --
│    └─LayerNorm: 2-40                   [1, 63, 26]               52
├─TransformerEncoderLayer: 1-7           [1, 63, 26]               --
│    └─MultiheadAttention: 2-41          [1, 63, 26]               2,808
│    └─Dropout: 2-42                     [1, 63, 26]               --
│    └─LayerNorm: 2-43                   [1, 63, 26]               52
│    └─Linear: 2-44                      [1, 63, 50]               1,350
│    └─Dropout: 2-45                     [1, 63, 50]               --
│    └─Linear: 2-46                      [1, 63, 26]               1,326
│    └─Dropout: 2-47                     [1, 63, 26]               --
│    └─LayerNorm: 2-48                   [1, 63, 26]               52
├─TransformerEncoderLayer: 1-8           [1, 63, 26]               --
│    └─MultiheadAttention: 2-49          [1, 63, 26]               2,808
│    └─Dropout: 2-50                     [1, 63, 26]               --
│    └─LayerNorm: 2-51                   [1, 63, 26]               52
│    └─Linear: 2-52                      [1, 63, 50]               1,350
│    └─Dropout: 2-53                     [1, 63, 50]               --
│    └─Linear: 2-54                      [1, 63, 26]               1,326
│    └─Dropout: 2-55                     [1, 63, 26]               --
│    └─LayerNorm: 2-56                   [1, 63, 26]               52
├─TransformerEncoderLayer: 1-9           [1, 63, 26]               --
│    └─MultiheadAttention: 2-57          [1, 63, 26]               2,808
│    └─Dropout: 2-58                     [1, 63, 26]               --
│    └─LayerNorm: 2-59                   [1, 63, 26]               52
│    └─Linear: 2-60                      [1, 63, 50]               1,350
│    └─Dropout: 2-61                     [1, 63, 50]               --
│    └─Linear: 2-62                      [1, 63, 26]               1,326
│    └─Dropout: 2-63                     [1, 63, 26]               --
│    └─LayerNorm: 2-64                   [1, 63, 26]               52
├─Select: 1-10                           [1, 26]                   --
├─Flatten: 1-11                          [1, 26]                   --
├─Linear: 1-12                           [1, 9]                    243
├─Sigmoid: 1-13                          [1, 9]                    --
├─Sequential: 1-14                       [1, 436]                  --
│    └─Linear: 2-65                      [1, 436]                  (4,360)
│    └─Linear: 2-66                      [1, 436]                  (190,532)
│    └─Linear: 2-67                      [1, 436]                  (190,532)
==========================================================================================
Total params: 430,371
Trainable params: 44,947
Non-trainable params: 385,424
Total mult-adds (M): 0.41
…
